model_after_training.pt (torch, 8499 bytes, 4 tensors)

fc0.weight f4 [1, 2]
00000000: 119b 1a38 0014 b73e
3.6860878e-05 0.35757446

fc1.weight f4 [128, 1]
00000000: 2d1d adbe de77 f5be 380b 3b3e 03ce 04bf
00000010: 9764 693e 7c18 4c3e f927 3dbf 4953 2d3e
00000020: b347 d83e 331d cc3e 5798 fbbd 29e9 50bf
00000030: 8d74 20be 0f26 b33e eb0e b9be e890 c03e
00000040: 938d 293f 3341 06bf c037 543c 27dc d43e
00000050: 2628 9a3d 9a56 b13d d592 f93d 47d7 49bf
00000060: 3593 9a3d 18e9 313f 5651 673f 7626 173f
00000070: 520c 063e b9b2 f03e 7554 f7be 9025 53bf
00000080: 8eb5 5cbf 10e5 7f3f 7c86 213f 4eff 2fbf
00000090: 69c6 c73e f8f4 413f 07f5 7e3f eee7 5e3f
000000a0: a94c 453f 9ae1 6dbe ca0d b5be 843e 513f
000000b0: 8a85 0e3f fd1c 19bf 09c6 663f ebd2 f83e
000000c0: 961d 0c3f 8414 21bf 0257 943e e5c7 b4be
000000d0: 3daa 483f 7f90 35be 9c80 c83e 038d 333e
000000e0: 2647 db3e 4262 afbe 8515 fb3e f163 33bf
000000f0: 5601 643e 2ad3 2dbf 431f 7dbf 9428 4ebf
00000100: 3a38 493f bd23 0b3f f616 6f3f 0f2d 4c3f
00000110: d5b8 63bf 3e4f 2fbf 394d 22be 8bda 26bf
00000120: 6d6b 323f bc2d 42bf e1e8 f7be b1e7 77bf
00000130: d2ea 11bf 45a2 513f 6496 503f 3153 363f
00000140: c350 463f dd42 643f 985c 81be c3b5 e23e
00000150: c725 633f ffc9 aa3e d3e6 7e3f b0da 033f
00000160: cb52 1e3f 1b8f b1be 40ee f33e 9588 f13d
00000170: ce80 77be 165f 0fbf 91c5 0ebf 0b92 45bf
00000180: f190 2c3f b3fc 343f d4dd e2bd 6d32 13bf
00000190: 747d 463f 2ad3 223f 23c5 913d ddf8 efbe
000001a0: 985a 6a3f fbc9 d23e bcef 42bf 27d0 733f
000001b0: e80b 433f 970e bcbe 3ae5 0e3f b7a0 10bf
000001c0: 4e62 23be 6d01 5a3f c0b3 1c3d 2f26 34bf
000001d0: f19e a9be e331 89be 4b6c 48be 85be bd3d
000001e0: f4cd 6b3f 278f 663d 5dff 1cbf 1b0d 5e3d
000001f0: a4f8 f33e d53f fc3e 5b54 69bf 36c4 33be
-0.33811322 -0.47943014 0.18265998 -0.5187685 0.22792278 0.19931215 -0.7388912 0.16926302
0.42242202 0.39866027 -0.12284916 -0.81605774 -0.1566946 0.34989974 -0.36144194 0.37610555
0.6623165 -0.52443236 0.012952745 0.41574213 0.07527189 0.08659096 0.12186209 -0.7884411
0.07547609 0.694963 0.90358484 0.5904306 0.13090637 0.47011355 -0.48306623 -0.8247919
-0.8621453 0.99958897 0.6309583 -0.6874894 0.39018562 0.7576442 0.9959263 0.87072647
0.770701 -0.23230591 -0.35362083 0.81736016 0.55672514 -0.5980986 0.9014593 0.48598418
0.54732645 -0.6292193 0.28972632 -0.35308757 0.78384763 -0.17730902 0.3916062 0.1753426
0.4282772 -0.34254652 0.49039856 -0.70074373 0.22266135 -0.67900336 -0.98875827 -0.8053067
0.7860142 0.5435141 0.9339441 0.79756254 -0.88953906 -0.6848029 -0.1584977 -0.6517722
0.6969517 -0.75851035 -0.4841986 -0.9683791 -0.5699893 0.8188823 0.8147948 0.7122069
0.7746698 0.89164525 -0.25265956 0.44279298 0.8872952 0.33357236 0.9957096 0.51505566
0.6184508 -0.34679493 0.47642708 0.11793629 -0.24170229 -0.56004465 -0.5577021 -0.7717597
0.67408663 0.7069809 -0.110774666 -0.5749882 0.77535176 0.6360346 0.07117679 -0.46869555
0.91544485 0.41169724 -0.76147056 0.9523949 0.7619004 -0.3672988 0.5581852 -0.5649523
-0.15955469 0.85158426 0.03825736 -0.70370764 -0.33129075 -0.26795873 -0.1957256 0.09264854
0.92111135 0.056288864 -0.61327153 0.054211717 0.47650635 0.4926745 -0.9114434 -0.17555317

fc1.bias f4 [128]
00000000: 1ad5 3ebf b67f d9be 703b b93e c4c7 34bf
00000010: 0e61 bd3e a893 593f 9e90 893d 12fd 29bf
00000020: f937 b8be c443 613e 356b 42bf 1618 ff3e
00000030: f0af 68bf db80 75bf f91f 78bf 646a 51be
00000040: fb87 2b3f 0b98 72bf 2213 553f 30cb cbbe
00000050: 0de5 943e 25eb 413d 4f1e 67bf b8b2 533f
00000060: 593a 093f 34c2 7e3f ca9f 013f 1a46 28bf
00000070: 320c 553f e0d5 633d f386 f33e fb7d 4cbf
00000080: 11e5 93be 53d9 7abf 4939 c8be 3f85 5e3e
00000090: da78 48bf adf3 a33e 2ccf 083f 2ca9 0c3e
000000a0: 64b3 2bbf 45e0 46bf dea7 9ebe 27af df3e
000000b0: 73e7 7b3f 6b7f 133f 81b1 e2bd 2443 b43e
000000c0: cf93 7abf 59fe 5abf 5fa7 ef3e 2c3e 11bf
000000d0: 2f12 f73e c634 34bf a08e fcbe a915 53bf
000000e0: a4e1 053f 30fc d3bd 7e4f 453f 7cd2 1d3f
000000f0: de0a 0d3f 56b9 f93c 14ea 9ebe 5919 60be
00000100: e429 063e b58d fe3e b9d2 33bf ff3f 563f
00000110: 2e4a dbbd 66de 56bf 22e9 09bf 5fe6 613f
00000120: bf6b 6a3f d872 6dbf 8be1 343f 9c90 ff3e
00000130: c4ec 163f 801a 583f 3d5a 0abf 9b9f a03e
00000140: 7549 d23e 892b 96be 4113 ac3e 7b39 92be
00000150: 37aa 1d3f e0fd 8cbe 5abf bfbe 1bd6 7f3e
00000160: 609d b43e 6729 f9be f23e b13d 0aa7 143f
00000170: 0c1c cfbd 9e88 9c3e 402e 75be 186f b23e
00000180: a2a3 38bf 4ce4 16bf 3b54 01bf 8d8e 6b3f
00000190: cfa9 88be ad8a 92bb d1cd f8be abda 7f3f
000001a0: 296b 793f 4f23 40bf d3ea 4fbf cdb7 42bf
000001b0: 44b6 42bb 5d3e 83be f9ee 27bf caaf b6be
000001c0: e78a 3f3e db17 05bf c0f3 603e f407 69be
000001d0: 8420 f7be 1455 0e3e cce3 513f ff5d 2dbf
000001e0: a68e 363d 72c6 bbbe cc8e 7b3f 9e43 72bf
000001f0: d3a7 75bf 2ba5 7b3f 94ae 21bf a804 463e
-0.7454392 -0.42480248 0.3617816 -0.7061732 0.3698811 0.8499093 0.06717037 -0.6640178
-0.35980204 0.21998507 -0.75944835 0.49823064 -0.9089346 -0.9589974 -0.96923786 -0.20450741
0.67004365 -0.9476325 0.8323232 -0.39803457 0.29081002 0.047343392 -0.9028062 0.8269458
0.53604656 0.9951508 0.50634444 -0.65731966 0.83221734 0.05562389 0.47563896 -0.7987973
-0.288857 -0.9798786 -0.39106205 0.21730517 -0.78309405 0.32021847 0.5344112 0.13736409
-0.67070603 -0.7768596 -0.30987448 0.43688318 0.9840004 0.576163 -0.110690124 0.35207474
-0.9788179 -0.85544354 0.46807382 -0.5673549 0.4825606 -0.70393026 -0.49327564 -0.82454926
0.52297425 -0.10350835 0.7707442 0.616493 0.55094707 0.030483883 -0.31037962 -0.2188467
0.13101918 0.4971749 -0.7024341 0.836914 -0.10707508 -0.83933103 -0.5387136 0.88242143
0.9157066 -0.9275336 0.7065665 0.49915016 0.58955026 0.84415436 -0.5404394 0.3137177
0.41071668 -0.2933009 0.3360844 -0.2855948 0.6158785 -0.2753744 -0.37450677 0.24984019
0.35276318 -0.486644 0.08654584 0.5806738 -0.101127714 0.3057298 -0.23943424 0.34850383
-0.72124684 -0.58942103 -0.5051915 0.9201439 -0.26692054 -0.004472098 -0.48594525 0.99943036
0.9742914 -0.75053877 -0.8121769 -0.7606171 -0.002971069 -0.25633517 -0.6559902 -0.3568099
0.18705331 -0.51989526 0.21967983 -0.2275694 -0.48266995 0.13899642 0.81988215 -0.6772155
0.044569634 -0.3667484 0.98264766 -0.94634426 -0.95959204 0.982989 -0.6315701 0.19337714

fc2.weight f4 [1, 128]
00000000: 83ea c0bb 14ca 89bc 2338 b0bc 2b05 6d3d
00000010: 3007 1f3b b8b2 b3bd 4c7c 4fbd 787a e8bc
00000020: 1bda 3c3d 2dea 71bd 7017 ae3d 69c6 adbc
00000030: 317e 67bc 7044 913d 40dc 3c3d d7a0 9c3d
00000040: 14be 493d 3770 cdbc 062d 77bd 1d56 a0bb
00000050: 680b 923d a124 01bd f621 a4bd 8297 0d3d
00000060: 6774 ac3d 7bcc dcbc bfa0 99bd 8680 a0bd
00000070: 39eb a63c fc61 12bc 8750 3dbd 754c a03c
00000080: 6103 113d bc6b 933d d6bd 8f3d 5aed 6ebc
00000090: 5ee1 9bbd dd66 a7bd 20f0 a43d 1c08 173d
000000a0: 95ab 243d e4e3 98bd f222 ab3d b96a a73d
000000b0: 579a 9f3d 9bdc 9bbd 75cb 06bd 1a2a 80bd
000000c0: 2fdf ae3d 3558 14bd 2880 2cbd b5b3 443d
000000d0: 8e15 2fbd 3a04 2bbd 2a62 c5bb 5b3c ddbb
000000e0: eb91 90bd febc 9a3d 3ded 26bd dc89 f33c
000000f0: 60a7 993d f421 513d 8d9d 6b3c 4bcc 9d3d
00000100: 3f6f 1f3c aae6 2ebd 5e99 ae3d 062e 9c3c
00000110: f117 acbd 78e2 bfbc b349 6fbd da28 9b3d
00000120: 3b4e 86bc 0756 a1bd 5250 ecbb 660b 5d3d
00000130: 1ca4 ae3c 6dbf d53c c2c7 213c f3e9 fd3c
00000140: 2df6 bfbc dcbf 09bd 9470 acbd a9de 84bd
00000150: 8d0c 153d 7870 4fbd df0d 693c 9446 d73c
00000160: 4fbf 8e3b 2f55 63bd 01a5 a83d 2b96 59bd
00000170: c69c 983d 80fa 92bd c6c3 9ebc dcba 3e3d
00000180: bbad 0cbd 0d63 9b3d b7d2 71bd 5e45 9bbd
00000190: 20f4 1cbd 02c9 353c e411 aa3d 4a94 33bd
000001a0: a3c4 f33c 4728 a7bc 76c2 8ebc 2f7c 883d
000001b0: 0bcc 92bd e379 373c 9199 ad3d 9b37 29bc
000001c0: 4702 893d eb32 d1bc 18f3 8d3d 7611 abbd
000001d0: 88b3 33bc 55a1 8bbc 217f dc3c 8dfd 143d
000001e0: 97a7 853d 124b 3bbc 6b50 a9bb 05e6 7e3d
000001f0: 6461 b5bc 5bdf 9a3d 34b3 69bd 0b92 37bc
-0.005887331 -0.016819991 -0.021511143 0.057866257 0.0024265759 -0.08774322 -0.050655648 -0.02837871
0.04610644 -0.059061218 0.08500564 -0.021212773 -0.0141292075 0.070931315 0.046108484 0.07647865
0.04925354 -0.025077922 -0.060345672 -0.004893078 0.07131082 -0.031529073 -0.0801429 0.034568317
0.084206395 -0.026952973 -0.07501363 -0.07837014 0.020375835 -0.008934494 -0.046219375 0.019567708
0.035403613 0.07198283 0.0701863 -0.014582956 -0.07611345 -0.081739165 0.08053613 0.036872968
0.040202696 -0.07465342 0.08356275 0.081746526 0.0779311 -0.076104365 -0.032908875 -0.0625803
0.08538663 -0.036216933 -0.042114407 0.048022944 -0.042745166 -0.041752078 -0.006023665 -0.0067515797
-0.07059082 0.07555579 -0.04075359 0.029728822 0.075026274 0.05105777 0.014380825 0.077049814
0.009731113 -0.042700447 0.08525346 0.019064914 -0.08403004 -0.023423418 -0.058419894 0.07576151
-0.016394725 -0.078777365 -0.0072117234 0.05396595 0.021318488 0.026092255 0.009874286 0.030995345
-0.023432815 -0.033630237 -0.0841991 -0.064877816 0.036388922 -0.050644368 0.0142244985 0.026278771
0.004356302 -0.05550116 0.08234597 -0.053121727 0.07451777 -0.07176685 -0.019380461 0.04656492
-0.03434537 0.07587252 -0.059038844 -0.0758159 -0.038318753 0.011095287 0.083041936 -0.04384259
0.02975685 -0.020404948 -0.01742671 0.06664311 -0.07167824 0.011198494 0.08476556 -0.010328199
0.066898875 -0.025536975 0.06931132 -0.0835294 -0.010968097 -0.017044703 0.026916089 0.036374617
0.06526106 -0.011431472 -0.0051670573 0.062231082 -0.022141166 0.07562133 -0.057055667 -0.011204253
